--------  Question 1  --------

Test score: 0.357824989335
Test accuracy: 0.842866666667


--------  Question 2  --------

Layer (type)                     Output Shape          Param #    Connected to                     
===================================================================================================
embedding_10 (Embedding)         (None, 80, 16)        80000       embedding_input_10[0][0]         
___________________________________________________________________________________________________
convolution1d_2 (Convolution1D)  (None, 78, 250)       12250       embedding_10[0][0]               
___________________________________________________________________________________________________
globalmaxpooling1d_2 (GlobalMaxP (None, 250)           0           convolution1d_2[0][0]            
___________________________________________________________________________________________________
dense_11 (Dense)                 (None, 250)           62750       globalmaxpooling1d_2[0][0]       
___________________________________________________________________________________________________
dropout_2 (Dropout)              (None, 250)           0           dense_11[0][0]                   
___________________________________________________________________________________________________
activation_11 (Activation)       (None, 250)           0           dropout_2[0][0]                  
___________________________________________________________________________________________________
dense_12 (Dense)                 (None, 1)             251         activation_11[0][0]              
___________________________________________________________________________________________________
activation_12 (Activation)       (None, 1)             0           dense_12[0][0]                                                                                      
===================================================================================================
Total params: 155,251
Trainable params: 155,251
Non-trainable params: 0
___________________________________________________________________________________________________


history.history  =
…
